Neural/neural_model.npz (npz, 2762 bytes, 4 tensors)

w_array_1 f4 [15, 20]
00000000: 6fab 0c3d e3c9 8bbf 1191 cbbd ad60 003e
00000010: a091 2ebd 5ed1 b7bd dde3 6b3e 14ed 3f3e
00000020: aa9b b13d 9a79 2abe bee0 65be 81a9 fe3e
00000030: 861c 453e cdc7 f03c f900 a3bd ab31 533e
00000040: b79d a5be bd9f 8e3b b254 6f3e 89b8 4b3e
00000050: c299 413e 80cd 1abf 1048 c6bd 2de7 6e3d
00000060: 202e ddbe b379 e1be 66bc e4bc 5eb3 3f3e
00000070: f9fa f03e 01fe 13be 0a2d 8bbe bf84 6b3e
00000080: 3e7b 0c3e a553 923e d0e7 a63e 023a 9a3e
00000090: f454 f8bd e280 ef3d 46c7 7b3e 9fc4 c23d
000000a0: fa83 803e 0864 26be a4d4 68bd c868 37be
000000b0: 6f58 f4be c061 11bf 89e2 37bd 5619 ed3d
000000c0: 039c 5b3f b730 a5be 218c 293c 3453 6e3d
000000d0: 480f 1ebd 14d8 e63d 022d 3f3f bb2a ca3e
000000e0: 6249 8a3e 885d 0a3f c441 d8bc b097 993e
000000f0: 8708 bdbe d33d 0bbf 82ac 5d3e 0d05 ac3e
00000100: 7721 dd3f 02a3 3d3f b8bc 123e 5a53 02bf
00000110: a79d b2bf f4be b13e 486f 023f 4dfc 5a3e
00000120: 7096 7c3d f6ec 5ebf 8e62 b5bf 9a29 863e
00000130: 10cb f6bb 52c2 d1bc db86 aebe 6420 a3be
00000140: 5624 d03e d703 87be 40a1 6b3e 49d6 c4bd
00000150: a305 96bf a004 70bf f907 223e 3e18 173e
00000160: c5bb 753f 425a 7ebe 6dbd 2ebe 4c3b c93d
00000170: 7855 53bc 194a 903e 7a01 723f 23fa 9e3e
00000180: 3732 bc3d a923 db3e 41fe 0a3e 9be6 a43d
00000190: dcc3 e43d 723e 62bf db7a dc3d ff8c 8cbc
000001a0: a99c dbbe f98a 85be 242f d23d 0674 2e3e
000001b0: 49df c03e 2345 5ebe b7e5 39be bf3c cb3e
000001c0: 2e85 1b3e 0930 603d d2f8 a13e d9c7 833e
000001d0: 5376 28be 14dd 923e 1035 393e efb5 823e
000001e0: 63fe 5bbd d626 063e 2815 c9bd ac1f 8d3d
000001f0: 8280 1f3e e36e fa3d fde6 9e3c d075 4cbd
00000200: 68e6 91be da44 3a3e 3b7c 97bd 0493 5abd
00000210: fe62 dc3c 861e 813b 5451 89be bf9a 57be
00000220: f537 81bd ec71 54be d1cf 633d 78a2 2abe
00000230: c50d 2b3e 891d ccbe f9eb 97be a080 c63d
00000240: 91d5 94be b591 c7be 937b e0bd 5027 543e
00000250: 1f0b 063f 6e26 83be b640 93be c661 2d3e
00000260: bcdd 9b3d 4c95 af3e 0329 c33e 7742 7c3e
00000270: 28f9 91be 097b 1d3e 8b03 893e 267c 243d
00000280: 54f1 12bd 6ae0 a2bf e367 efbd 4571 503e
00000290: a457 b43e 602e 883d 648e 1d3e 1ebb 513e
000002a0: 09e2 78bd aa6b 17be aaa3 6abe 254a 123f
000002b0: caa1 8c3e aa4e c73d 89a1 a8be e4f3 933e
000002c0: cf26 cbbe 311b 803d de33 7e3e 4abb 413e
000002d0: 4d0a b7bb 0872 3a3c bdd4 15bd 0a00 9d3c
000002e0: 5cc9 3c3e 4f08 693c 8532 4dbe 9120 9bba
000002f0: 8ca9 923b cc53 363d 769e d73c a33a d3bb
00000300: 68c6 b23c e229 f03d 943e 78bd 5661 cc3d
00000310: 1a57 a13d c8d7 de3b 48f4 0abd 91ba cdbc
00000320: a87b 443e 10c1 69bf 9b61 6cbd 52a9 d5bd
00000330: 46c7 42bf cf6c dfbe 5f3f a6be 81c8 223e
00000340: 9a39 243f 161a e8bd 9d01 1fbe ecd5 d43e
00000350: e27b 3f3e 2eeb 9b3e 9e6d 203f 8f97 093f
00000360: e06b f03c e7c3 863e ff3e 043e 52b0 1b3e
00000370: ca10 f03d f320 9bbe 844b 70bd ca7b d2bd
00000380: 2db6 c3be 734b 87be 3288 ccbd e42a af3d
00000390: af70 e23e 67e4 4abe ce3a ec3b fe4c 013e
000003a0: 728e c23c effc 373d 885f d93e 9e38 8b3e
000003b0: 49f5 da3d f008 413e 85a0 88bc 50bf 553e
000003c0: 8f5a 913d cb78 b9be 9d17 45be 9f00 97bd
000003d0: 9052 13be 19d6 24be b3a9 9abd 4eb0 793d
000003e0: 83c6 a83e 8bbd 7bbe 47e9 0bbd 9d4a 213e
000003f0: 9fed 893d caea e2bc ef00 873e 30cc c53d
0.03434318 -1.0920986 -0.099397786 0.12536879 -0.042619348 -0.089754805 0.23036142 0.18742782
0.08672269 -0.1664795 -0.22449014 0.49738696 0.19249162 0.029392147 -0.0795917 0.20624416
-0.3234689 0.0043525384 0.23372152 0.19894613 0.1890631 -0.6046982 -0.096817136 0.058325935
-0.43199253 -0.44038162 -0.027921867 0.18720767 0.47066477 -0.14452364 -0.271828 0.22999857
0.13718888 0.2857944 0.32598734 0.3012238 -0.121255785 0.11694504 0.24587736 0.09510159
0.2510069 -0.16249096 -0.056843415 -0.17911065 -0.4772372 -0.5678978 -0.044893775 0.11577098
0.8578493 -0.3226373 0.010348351 0.058184817 -0.038588792 0.112716824 0.7467805 0.39485726
0.27009112 0.5404897 -0.026398547 0.2999854 -0.36920568 -0.5439121 0.21647838 0.33597603
1.7275838 0.74076855 0.14329803 -0.50908434 -1.3954362 0.34715998 0.5095105 0.21385308
0.061666906 -0.87080324 -1.4170702 0.26203614 -0.007531531 -0.025605354 -0.34087262 -0.3186065
0.40652722 -0.26370117 0.2301073 -0.09611184 -1.172047 -0.9375706 0.15823354 0.14755341
0.9598964 -0.24839118 -0.17064448 0.09825763 -0.012898795 0.28181532 0.94533503 0.31050214
0.09189265 0.42800644 0.13573553 0.08051797 0.1117017 -0.88376534 0.1076562 -0.017157076
-0.4289296 -0.2608259 0.102628976 0.17036447 0.37670353 -0.21706061 -0.18154036 0.39694783
0.15187523 0.05473331 0.31635147 0.2573841 -0.16451387 0.28684294 0.18086648 0.2552943
-0.0537094 0.13100752 -0.09818488 0.068908066 0.15576366 0.12228181 0.019397253 -0.049917042
-0.284961 0.18190327 -0.07396742 -0.05336286 0.026902672 0.0039404063 -0.2681986 -0.21055125
-0.06309501 -0.20746583 0.05561811 -0.1666354 0.16704471 -0.39866284 -0.2967222 0.09692502
-0.29069188 -0.38978353 -0.1096107 0.20718122 0.5236072 -0.25615257 -0.28760308 0.16931829
0.07610652 0.34293592 0.38117227 0.2463473 -0.28510404 0.15378965 0.26760516 0.04015746
-0.03587468 -1.2724736 -0.11689737 0.20355709 0.35223114 0.0664947 0.15386349 0.20481536
-0.06076244 -0.14787164 -0.22913995 0.57144386 0.27467185 0.09731801 -0.32935742 0.2889701
-0.39678046 0.06255186 0.24824473 0.18919101 -0.0055859447 0.011379726 -0.036579836 0.019165058
0.18436188 0.014223172 -0.20038803 -0.0011835267 0.004475778 0.04451351 0.026320677 -0.006446199
0.021823123 0.117267385 -0.060606554 0.09979503 0.078779414 0.0068006255 -0.03392437 -0.025113376
0.19187796 -0.91310215 -0.05771027 -0.10432686 -0.7608532 -0.43637702 -0.32470223 0.15896799
0.64150393 -0.113331005 -0.15527959 0.4156946 0.18699601 0.30452865 0.6266726 0.53746885
0.029348314 0.26321337 0.12914656 0.1520398 0.11721952 -0.30298576 -0.058665767 -0.10277517
-0.38224927 -0.2642475 -0.09986915 0.085531026 0.44226596 -0.19813691 0.0072091585 0.12627026
0.023749564 0.04491895 0.42455697 0.27191633 0.10691316 0.18851066 -0.016678104 0.20873761
0.07097351 -0.3622497 -0.19247289 -0.07373165 -0.14386964 -0.16097297 -0.07551899 0.060959153
0.32963952 -0.24584024 -0.034158017 0.15751119 0.06734776 -0.027699847 0.263679 0.09658086

w_array_0 f4 [20, 6]
00000000: f5a4 8fbc d3f4 9bbc e2ed ddbf 30a4 8fbd
00000010: 64bf 00bc 7ef7 cbbd f183 0040 cbfb 8bbd
00000020: e4de a7bb 7ba7 983a 259a 263b 0cf2 8d3d
00000030: 2d28 a13d 9990 b7bd ddf6 553c dbc0 ae3c
00000040: d6ee 0d3b 267d 68bd 27df 3cbc 7167 cabc
00000050: efed 85be 47b6 dfbc 745c a13c b9c3 58be
00000060: 1cf8 913c 01ee c23b f96a 113d f0f2 233c
00000070: 90fb 89bb 9be4 c0be 6e05 69bc b00f 503b
00000080: fb67 9bbf 9e0f 31bd cad3 1cba 1f48 a73d
00000090: 4444 113d c0c8 7d3d d207 12bd c6b3 b1bd
000000a0: 3731 b83c 1695 09be 8ac6 ebba 4af0 413c
000000b0: ff5b e23d 21f7 3c3f 2b8b 98bc ce2e 41be
000000c0: 9ab2 b2bb 61d8 563b 6f23 b4bc c3a1 bcbb
000000d0: 2f38 babc 282f 3b3f bd20 07be a9c1 9c3e
000000e0: 76f0 5a3b cdfb 14bc 5c87 c0bc ee86 7cbe
000000f0: c891 04be ebdf a23e 0198 213d c467 923e
00000100: 5b71 ddbb dfb9 1fbe dcf5 0f40 f897 f4bd
00000110: f5b1 3cbc 4a55 ca3b 1f6e 063c 6825 923d
00000120: 361c bd3e 5778 f7bd ce52 6d3b a6bd de3c
00000130: 62fd 74bb cf14 cdbe b5c3 debd a523 453d
00000140: aa78 ffbb 4c3d 5abe 8953 183d 6f7b b83d
00000150: aeaf dbba a114 ffbb 8c69 65bd 34ca d1ba
00000160: e145 8f3c 56a9 53bf e35a 2f3e 2755 57be
00000170: 089a 21bc a38d cbbc 8610 e1bb 7120 ee3d
00000180: dd03 9c3d a4b0 80bd 1d84 b9bd 73df 0d3e
00000190: 6895 0b3d 44e2 243d 6a58 b5bd cb8a fa3d
000001a0: 40f2 c9bc b9df bd3c 39ac debb 7747 e03d
000001b0: d6ae 183e 7ef0 c7be 7310 c4bc e797 a53e
000001c0: 2b19 043d e7fe 853e 5b3b d6bc 1fd4 883c
000001d0: b1cc 01bd f2f1 a2be 1c0b 2b3c a280 3f3d
-0.017534712 -0.01903764 -1.7338221 -0.07013738 -0.007858131 -0.09959315 2.008053 -0.06835135
-0.005123006 0.0011646593 0.0025421467 0.069309324 0.07868991 -0.08963127 0.013059345 0.021332195
0.002165725 -0.056759976 -0.011527813 -0.024707528 -0.2615809 -0.027308596 0.019697405 -0.21168412
0.017818503 0.0059487824 0.035502408 0.010006651 -0.004210897 -0.37674412 -0.014222486 0.0031747632
-1.2141107 -0.043227784 -0.0005982487 0.08168053 0.035465494 0.06195903 -0.03565199 -0.08676867
0.022484405 -0.13435778 -0.0017988246 0.0118370745 0.11052703 0.7381459 -0.018621048 -0.18865511
-0.00545342 0.003278278 -0.021989552 -0.005756588 -0.022731869 0.7311883 -0.13196082 0.306165
0.0033407486 -0.009093237 -0.023502044 -0.24660847 -0.12946236 0.3181146 0.039451603 0.28594792
-0.006757898 -0.15598248 2.249381 -0.11943048 -0.011517038 0.006174718 0.008204966 0.07136041
0.36935586 -0.120835 0.0036212686 0.02719004 -0.0037382473 -0.40054938 -0.10877172 0.048129696
-0.0077963667 -0.21312445 0.03718904 0.09007918 -0.0016760731 -0.0077844416 -0.05600886 -0.0016005696
0.017489376 -0.8268026 0.17124514 -0.21028577 -0.009863384 -0.024847811 -0.006868425 0.116272815
0.07617924 -0.062836915 -0.09058402 0.1385477 0.03407803 0.040254846 -0.08854754 0.12233504
-0.024651647 0.023177968 -0.006795433 0.10951131 0.14910445 -0.39050668 -0.023933625 0.32342455
0.032250565 0.26171038 -0.02615135 0.01670271 -0.03168935 -0.31825215 0.01043966 0.046753533

b_array_0 f4 [20]
00000000: 8643 84bf 72e1 1040 2564 11bf 8e37 c73e
00000010: e6b6 663f 71bb ccbf d408 07bf 06e6 4d3e
00000020: cc78 00c0 a778 fb3e 3602 e8be 2892 da3f
00000030: b008 a13e 0005 423d c8f1 a83f 48c8 993e
00000040: e69a a53e b27e 3a3e 5416 dd3e 1a37 b53e
-1.0333107 2.26376 -0.56793433 0.38909572 0.9012283 -1.5994703 -0.52747846 0.20107278
-2.0073729 0.49115488 -0.45314187 1.7075853 0.3145194 0.04736805 1.3198786 0.30035615
0.3234474 0.18212393 0.43181098 0.35393602

b_array_1 f4 [15]
00000000: 5014 633d 8dbe bb3d d77e 1abe d926 013e
00000010: dab5 0dbe f68f bd3b e8c5 cb3d dc4b d3bd
00000020: b801 373e f925 e73b a446 013e ce9f 313e
00000030: a8e0 393e 8df9 bbbd d428 083e
0.055439293 0.09167204 -0.15087448 0.12612475 -0.13838902 0.0057849837 0.09949857 -0.103172034
0.1787175 0.0070540872 0.12624604 0.17346117 0.18152106 -0.091784574 0.13296825
