Neural/neural_model.npz (npz, 2762 bytes, 4 tensors)

w_array_0 f4 [20, 6]
0	0x3d18b4c5	0.03728177
1	0xbd917cd7	-0.071038894
2	0xbc1ec4ed	-0.009690505
3	0xbc189e54	-0.009315092
4	0xbbcdb9f3	-0.0062782704
5	0x3e0a5b12	0.13511303
6	0x3e52c95d	0.20584626
7	0x3e19ccaa	0.1501948
8	0x3e182035	0.14856036
9	0xbc84f1c9	-0.016228573
10	0xbd82e9a5	-0.063922204
11	0xbe3c5d8c	-0.1839506
12	0x3dfd844d	0.1237875
13	0x3c4b3666	0.012403106
14	0xbda40d49	-0.080103464
15	0xbd5b25b1	-0.053502742
16	0xbd0af458	-0.03392443
17	0x3e7974f6	0.24361023
18	0xbdcc600d	-0.09979258
19	0xbd27aa3f	-0.040933844
20	0x3df33f3f	0.118772976
21	0x3b9fe208	0.00487924
22	0x3c71387c	0.01472294
23	0x3f3a15a9	0.726893
24	0x3cf35927	0.029705597
25	0x3d8897c6	0.066695735
26	0x3eb7f992	0.35932595
27	0x3d266b23	0.040629517
28	0xb6bfff0a	-5.721934e-06
29	0xbe936d70	-0.28794432
30	0x3b965708	0.0045880117
31	0x3e16e4f7	0.1473578
32	0x3d816697	0.063183956
33	0xbcb108e7	-0.02161069
34	0xbd104ac0	-0.035227537
35	0xbcecb412	-0.028894458
36	0x3dae547c	0.08512208
37	0x3d951451	0.07279266
38	0x3bab7237	0.0052321213
39	0xbcabf195	-0.020989219
40	0xbcddecf5	-0.027090529
41	0x3e037a47	0.12839614
42	0x3e31daaf	0.17368577
43	0x3d553385	0.052051086
44	0x3cd7e19b	0.026352694
45	0xbceb1baa	-0.028699715
46	0xbd30d22a	-0.043169178
47	0xbe2d241b	-0.16908304
48	0x3f172937	0.59047264
49	0xbd335e71	-0.04379124
50	0x3ca82e45	0.020529876
51	0xbc1090d5	-0.008823593
52	0xbcb4928b	-0.022042533
53	0x3df3460b	0.11878594
54	0xbd0841d8	-0.03326592
55	0x3d11e7d4	0.03562148
56	0xbe6cde37	-0.23131643
57	0xbcb2f6c7	-0.021846188
58	0x3cc930a7	0.024559332
59	0xbe6ae342	-0.22938254
60	0x3d812b2c	0.063070625
61	0x3cc76dd6	0.024344366
62	0xbd01d88c	-0.031700656
63	0xbdb76fc9	-0.08956868
64	0xbd47c5cc	-0.04877262
65	0x3f353b5f	0.7079372
66	0xbd46624a	-0.04843358
67	0x3df0811b	0.11743375
68	0x3cef9331	0.029244991
69	0xbda31af9	-0.07964129
70	0xbd90524a	-0.070469454
71	0x3e583bbc	0.21116537
72	0x3db31906	0.08745007
73	0xbe0fee0a	-0.14055648
74	0xbd0a8d94	-0.033826426
75	0xbc523484	-0.0128299035
76	0xbc04e876	-0.008112064
77	0x3e5eb14e	0.21747324
78	0xbd0af346	-0.03392341
79	0xbd48810c	-0.048951194
80	0x3e84ea55	0.2596003
81	0x3d00583f	0.031334158
82	0x3c7e9f68	0.015540935
83	0x3e650cca	0.2236816
84	0x3cd8a82d	0.02644738
85	0xbc578c8a	-0.013156066
86	0xbd9fcb1f	-0.07802414
87	0x3c7f1244	0.01556832
88	0xbc3ec962	-0.011644693
89	0xbe880336	-0.2656495
90	0xbce1ec29	-0.02757843
91	0xbdaa43d3	-0.08313718
92	0xbd0eb01e	-0.034835927
93	0xbceaf9d4	-0.02868358
94	0xbd84603c	-0.06463668
95	0xbe122d24	-0.14275032
96	0x3e44a385	0.19203003
97	0xbe7e2108	-0.24817288
98	0xbba2425a	-0.0049517574
99	0x3d143bd5	0.036189873
100	0xbbc3615a	-0.005962533
101	0x3e433528	0.19063246
102	0xbcf3f3c4	-0.029779322
103	0xbbd51887	-0.006503168
104	0xbd98dda2	-0.07464148
105	0x3bc8e57c	0.0061308723
106	0x3c49c5c0	0.012315214
107	0xbe87c3e9	-0.26516655
108	0xbe2d9eb4	-0.16955072
109	0x3e0c07e4	0.13674885
110	0xbd919fc4	-0.07110551
111	0xbc4b648a	-0.012414107
112	0x3ca1b174	0.019737937
113	0x3e409b30	0.188092
114	0xbe8aded3	-0.27123126
115	0x3ef39a76	0.47578782
116	0x3dd0b804	0.10191348
117	0xbd83d1b5	-0.06436483
118	0xbcd5b750	-0.026088387
119	0xbe8d9208	-0.27650476

b_array_0 f4 [20]
0	0x3ec3e30e	0.38259166
1	0x3f106382	0.56401837
2	0xbec43d57	-0.3832805
3	0xbf20db45	-0.6283458
4	0x3f479caa	0.77973425
5	0x3ee0fecf	0.43944404
6	0x3e886b88	0.2664454
7	0x3d112a97	0.035441007
8	0x3e8a93b3	0.2706581
9	0x3e2c4d3f	0.16826342
10	0xbf15787b	-0.58386964
11	0xbdb03956	-0.08604686
12	0xbe9f7c98	-0.31149745
13	0xbec353ce	-0.38149875
14	0xbe216efe	-0.15764996
15	0xbe6da904	-0.23209006
16	0x3e7a7ae5	0.24460943
17	0x3f114c5e	0.5675715
18	0xbe2227be	-0.15835473
19	0xbe86dabb	-0.26338753

w_array_1 f4 [15, 20]
0	0x3dab40b7	0.08361953
1	0xbe036135	-0.1283005
2	0x3e0cbdaf	0.13744234
3	0xbc258a9a	-0.010103846
4	0x3d9c0624	0.07618359
5	0xbc3ed92f	-0.01164846
6	0xbe1a1f2e	-0.15050957
7	0xbd564603	-0.052312862
8	0x3e609d05	0.21934898
9	0x3d765516	0.060139738
10	0xbe00dda9	-0.12584557
11	0x3d0af058	0.033920616
12	0x3e4ad4ab	0.19807689
13	0x3dc73d7d	0.09728525
14	0x3e6e686d	0.23282023
15	0x3daeb60c	0.085308164
16	0x3d8de066	0.06927566
17	0xbe53fd52	-0.20702103
18	0xbd915433	-0.07096138
19	0xbe6d0941	-0.23148061
20	0x3e1e9f74	0.15490514
21	0xbe38f52e	-0.18062279
22	0x3eef7b3b	0.46773705
23	0xbeabb9d8	-0.33540225
24	0xbdbc3a3c	-0.09190795
25	0x3c3e480f	0.01161386
26	0x3d60063c	0.054693446
27	0xbbeb1d70	-0.00717514
28	0xbe0f2e4a	-0.13982502
29	0xbd92d8c6	-0.071702525
30	0xbe81af76	-0.2532918
31	0x3d3b9af4	0.04580207
32	0x3e0e72ee	0.1391103
33	0x3e686c75	0.22697623
34	0xbd3d9a32	-0.04628963
35	0xbe69fcf6	-0.22850403
36	0x3eb00aa7	0.34383127
37	0xbe491b82	-0.196394
38	0xbc836acb	-0.016042134
39	0xbe90b74d	-0.28264847
40	0x3d330386	0.043704532
41	0xbe923151	-0.2855325
42	0x3e568212	0.20948055
43	0xbe995c46	-0.29953212
44	0xbe956f70	-0.29186583
45	0xbe097dfb	-0.13426964
46	0x3e5ead34	0.21745759
47	0x3d5974f8	0.053090066
48	0x3cf01965	0.029308984
49	0xbe82fb68	-0.25582433
50	0xbe858255	-0.26075998
51	0x3d8caa73	0.06868448
52	0x3e78a6e4	0.24282414
53	0x3ea55c10	0.322968
54	0x3d83b507	0.064310126
55	0xbdd55036	-0.1041569
56	0xbd851400	-0.06497955
57	0xbc119a1f	-0.008886843
58	0x3e26b42b	0.16279666
59	0xbddaa83f	-0.10676622
60	0xbb0e2fbe	-0.0021695937
61	0x3e65e28c	0.22449702
62	0xbec2dd07	-0.38059255
63	0x3e8c763e	0.27433962
64	0x3f295b3e	0.6615485
65	0xbdbe8fd0	-0.09304774
66	0xbca9777d	-0.02068686
67	0x3f007671	0.5018073
68	0x3da88ef5	0.08230392
69	0x3ea0ac31	0.31381372
70	0x3f716179	0.94289356
71	0xbe839a0b	-0.25703463
72	0xbe042e9e	-0.12908408
73	0xbef5dc88	-0.48019814
74	0x3d253b87	0.040339973
75	0x3e81b65b	0.2533444
76	0xbecd3ee8	-0.40087056
77	0x3f14af81	0.580803
78	0xbe9b5f6f	-0.30346248
79	0x3e4e1a14	0.20127136
80	0xbe365239	-0.17804803
81	0xbef49eb2	-0.47777325
82	0x3e01d43c	0.12678617
83	0xbeeeb905	-0.46625534
84	0xbeeed498	-0.4664657
85	0x3d2d39e2	0.04229153
86	0xbc130c70	-0.008975133
87	0x3e11035c	0.14161438
88	0x3c4046d3	0.011735636
89	0xbe3d25e9	-0.18471493
90	0xbe7c4e1f	-0.24639176
91	0x3ce328ee	0.027729478
92	0x3e068c4b	0.13139455
93	0x3ea34287	0.31886694
94	0xbd694c6a	-0.05695764
95	0xbe16df82	-0.14733699
96	0xbd82ce99	-0.063870616
97	0xbf2bbfcf	-0.6708955
98	0x3cb3d005	0.021949777
99	0xbe9026d2	-0.28154618
100	0xbe15971e	-0.14608428
101	0xbe448aa8	-0.19193518
102	0x3e8497c5	0.2589704
103	0xbe1e855b	-0.15480559
104	0xbdc1e75e	-0.09467958
105	0xbe0cbfa2	-0.13744977
106	0xbe120270	-0.14258742
107	0x3e0c311e	0.13690612
108	0x3e2d2ea4	0.16912323
109	0xbdee3ff9	-0.116332956
110	0xbe55d79f	-0.20883034
111	0xbda8433c	-0.08215949
112	0x3e553734	0.2082184
113	0x3e4de766	0.20107803
114	0x3d57a375	0.05264612
115	0x3e22b7f6	0.15890488
116	0xbdb5abae	-0.08870636
117	0xbebd5180	-0.36976242
118	0x3dd09d24	0.10186222
119	0xbe8b09d0	-0.27155924
120	0xbdf2a5f6	-0.11848061
121	0x3d116600	0.035497665
122	0xbd727404	-0.059192672
123	0x3e052dfc	0.13005823
124	0x3d9d10d6	0.07669227
125	0x3e5deabf	0.2167158
126	0xbd89d2e8	-0.0672968
127	0x3dd61c34	0.10454598
128	0xbce6a358	-0.02815406
129	0x3dca839d	0.098883845
130	0x3da00612	0.07813658
131	0xbd8adf58	-0.06780881
132	0xbd72cc61	-0.059276942
133	0xbd7c820f	-0.06164747
134	0xbd10d2df	-0.035357352
135	0x3d39ee54	0.045393303
136	0xbdbc5a58	-0.09196919
137	0x3d732605	0.05936243
138	0x3c8761ee	0.016526189
139	0xbd936422	-0.07196833
140	0x3e50fa6c	0.20408028
141	0xbe4a368d	-0.19747372
142	0x3e372df3	0.17888622
143	0xbea167eb	-0.31524596
144	0xbe539aff	-0.20664595
145	0x3e01f336	0.12690434
146	0xbe14a2b9	-0.14515199
147	0xbccb299e	-0.024800118
148	0xbd51d7cf	-0.0512312
149	0xbe658eb5	-0.2241772
150	0xbe37847c	-0.17921633
151	0x3d8773b0	0.066138625
152	0x3e4b20c5	0.1983672
153	0x3e60231a	0.2188839
154	0x3bd1a24d	0.0063975216
155	0xbdccb098	-0.0999462
156	0x3d80a1f2	0.062808886
157	0xbe01aef6	-0.12664399
158	0x3c0a0f31	0.0084264735
159	0xbeb24634	-0.34819186
160	0xbe22a1c3	-0.1588202
161	0x3df64e5e	0.12026666
162	0x3e4623af	0.1934955
163	0x3c8f6f4e	0.017509129
164	0x3de7b5cf	0.11313974
165	0xbe42c23b	-0.19019406
166	0xbe961fcc	-0.29321134
167	0xbcd5ec90	-0.026113778
168	0x3e43d5c7	0.19124518
169	0x3de99eb2	0.11407222
170	0xbce1384e	-0.027492668
171	0xbd10854e	-0.03528338
172	0x3e0bcea9	0.13653053
173	0x3de3dbcc	0.11125907
174	0x3d039bc4	0.03213097
175	0x3e375e0e	0.17906973
176	0x3e85f56e	0.2616381
177	0xbcc25748	-0.02372326
178	0x38cb782b	9.702177e-05
179	0xbe64025e	-0.22266528
180	0x3d90175c	0.070357054
181	0xbbd598ca	-0.006518458
182	0xbd9be17c	-0.07611367
183	0xbc8ffeea	-0.017577607
184	0x3c61ee2a	0.013789693
185	0x3e4df1e3	0.20111804
186	0x3cd22ec9	0.025657075
187	0xbd17cf4e	-0.037062936
188	0xbc7cb396	-0.015423676
189	0x3da6c441	0.08142901
190	0x3c8e1f7b	0.017348995
191	0xbd181667	-0.03713074
192	0x3d25e062	0.04049719
193	0xbcda5a70	-0.026654452
194	0xbe21dc55	-0.15806706
195	0x3b9e3194	0.0048276875
196	0x3e20a7a7	0.15688954
197	0x3d195818	0.03743753
198	0xbcb0d783	-0.021587139
199	0x3d76f97c	0.06029652
200	0x3dc5d2e0	0.09659362
201	0xbe01e2c0	-0.12684155
202	0x3e0ec8bb	0.1394376
203	0xbe99c9ca	-0.30036765
204	0xbe699bf3	-0.22813396
205	0xbd505eea	-0.050871767
206	0x3ddc8739	0.10767979
207	0xbdd3a374	-0.103339106
208	0x3e0ca2b7	0.13733946
209	0xbd4df32e	-0.050280742
210	0xbe8c3966	-0.27387542
211	0x3dd565ea	0.10419829
212	0x3e6a278d	0.2286665
213	0x3e9cbc99	0.3061264
214	0xbdddec18	-0.10836047
215	0xbcaa550d	-0.020792508
216	0x3da38b3a	0.0798554
217	0xbe379478	-0.1792773
218	0x3c2fa355	0.010720094
219	0xbe9354df	-0.2877569
220	0xbd421cca	-0.047390737
221	0xbd34bd93	-0.044126105
222	0xbd77f51c	-0.06053649
223	0xbe021139	-0.12701882
224	0xbdffc4b6	-0.124886915
225	0xbde6556a	-0.1124676
226	0x3dc4effd	0.09616087
227	0xbc26bae4	-0.010176394
228	0x3d307d5f	0.043088313
229	0x3c8b5e24	0.017012663
230	0xbe41c72a	-0.18923631
231	0x3dc1d780	0.094649315
232	0x3ece82ac	0.4033407
233	0x3e0aa190	0.13538194
234	0x3c9a696e	0.0188491
235	0xbd446761	-0.047950152
236	0x3df68e3c	0.12038848
237	0xbe31d7c2	-0.17367461
238	0x3d826f30	0.063688636
239	0x38b63227	8.687778e-05
240	0x3d912e2c	0.07088885
241	0x3deee3db	0.11664554
242	0xbc0af502	-0.008481266
243	0xbe025c32	-0.12730482
244	0xbdff1523	-0.124552034
245	0xbdf7d770	-0.12101638
246	0x3b94db8e	0.0045427745
247	0xbe7dca0c	-0.24784106
248	0x3d47ee66	0.04881134
249	0xbdc15596	-0.09440152
250	0xbe077882	-0.13229564
251	0x3dd93c35	0.10607187
252	0x3eca4ece	0.39513248
253	0x3d4c7070	0.049911916
254	0x3dcc4b2e	0.09975277
255	0xbdf8d909	-0.12150771

b_array_1 f4 [15]
0	0xbeab963e	-0.33513063
1	0xbda2c4c9	-0.0794769
2	0x3e1fcb7a	0.15604964
3	0xbe080621	-0.13283588
4	0x3d95dbc4	0.073173076
5	0xbb286060	-0.002569221
6	0x3e3981bb	0.18115894
7	0x3d7060cb	0.05868606
8	0xbde2f023	-0.11080959
9	0x3c9f911e	0.019478377
10	0xbd8073e1	-0.06272102
11	0x3e5a0071	0.21289231
12	0x3e2e7151	0.17035414
13	0xbdd37e51	-0.10326827
14	0xbbf28e72	-0.0074022347
